models/w8a/server.pt (torch, 4195 bytes, 2 tensors)

weight f4 [2, 300]
00000000: 3ba3 8e3d 3e7c d53d d75b d93c d1bd c83c
00000010: 898d 613d 6114 b63d 37b8 a23d d681 f33d
00000020: d44c 8c3d 7e7d ae3d 319f 663d 875b 7f3d
00000030: b568 9b3c 9eab 203d 7c37 5b3d 4b33 a23d
00000040: cdf7 c43d cac0 d53d 69a7 0e3d d91f 643d
00000050: 2d62 c83d 95e5 f73d 5e31 7d3d b649 ee3d
00000060: 04d2 833d 016d b13d 1458 003e 045e a83c
00000070: 6da2 0b3d fe1a 723d 32d2 6e3d af80 013e
00000080: f39e 153d d53f 333d bdc2 bd3e 54cb ea3d
00000090: 66e7 bf3e 3ad3 ea3e 9f84 913d 0940 c63c
000000a0: cd9b 9d3e c962 06bd 1c14 ca3b a632 b53e
000000b0: 2f89 be3e 02ff b7bc fb25 e63e 6011 273e
000000c0: 10f8 b2bc 52d5 d03e 0d39 df3e 0219 773d
000000d0: bc5b cd3e 9271 d53e 6866 e53e 21fe 4ebc
000000e0: bc8f d83e aae0 43bd 30ab bc3e 0ae3 ee3d
000000f0: 96d9 d33c eca8 dd3e 4403 313e ff2a aa3c
00000100: 8e21 7b3e d5e3 123e a98f 6e3d 3b29 d73e
00000110: a9d6 e53e 76cd ec3e 3a21 bd3e b427 c63e
00000120: 5573 753e 0ab0 5e3d 10a3 eb3e c076 e53e
00000130: 9a48 913d 55dc b73e 1ed1 c93e fbfd bb3e
00000140: 25a5 b63e 1e10 933d 9e24 e83e a11b b13e
00000150: d6c6 d33e f7b5 8f3b 43de ce3e c77d c43e
00000160: 290f bb3e f323 c43e 4ce2 c83e 62dc 5a3d
00000170: 1b94 bd3e fee0 813d 47f9 1fbd c98b 83bc
00000180: e44b e23e 7e0c 793e d325 a03e 3804 f73c
00000190: d2dc e03e bd66 e73e 6e55 c33e 461c ce3e
000001a0: caec 933e 8ac8 d03e b3a4 bd3e f769 ba3e
000001b0: 94e9 cf3e a704 463c 88e4 053e 6a3e 323e
000001c0: dcd3 1cbd b12f eb3e 918b e53e 348f 173e
000001d0: d26b ca3e 3d3d ca3e 9957 a03e 54c2 8b3c
000001e0: 6775 d43c b300 e33b 43c6 c7bc e146 fa3c
000001f0: 8a98 60bd b2c1 0abd 7669 6abc 5316 e4bc
00000200: 52cf a3bc 66e0 3fbd cb35 47bc 482e 483c
00000210: 1b8b 18bd 83ee d2bb d03f 193d acad 19bc
00000220: 0005 fbba 5032 0abc 3420 043c ff83 063d
00000230: dd6c 4f3d f454 063d 63a3 6c3d fa90 d13e
00000240: 4537 b23e 1dcf c53e f0d0 e53e a2b2 d13e
00000250: 8a56 c33e 2ec4 41bd ee86 dc3d 4e4c 8d3b
00000260: 5b0c c03c 5cbb e33e 4a81 e33e f7de b43e
00000270: bbf0 e53e eec7 bc3e 922c ceba 9f75 84bc
00000280: 4248 cc3e 91f5 593c 08dd 993c 6a69 ba3e
00000290: 074f cd3e c4d9 893d 193c 073b b015 dc3e
000002a0: 6c57 b93e 171f ce3e cd84 ec3e 1030 bb3e
000002b0: 58e5 593e 1348 c63c 49f1 44bd b57a 223d
000002c0: 9ba8 4abb f454 b4bc e392 493d c1d8 2ebd
000002d0: e1e5 1d3c 015b 143c d469 a43e 0438 5f3d
000002e0: 5f57 483e dcaa 883c 2dce 27bc e96b 8c3d
000002f0: bf3c 24bd c10c 883e b33e 483d 2531 203d
00000300: e809 bf3e e2fc d43e af41 bd3e 7b84 983e
00000310: c59a 8e3e ecc4 173d 8582 913d c7c8 173c
00000320: 8c9a c13b d192 083d 6f8d bc3e 9c77 bc3e
00000330: 2dac bf3e 3867 e63e 9af9 c73e bc9a ea3e
00000340: 0982 963e e264 693c 92a6 5e3c 11d8 a23e
00000350: 7906 973d 8698 e73d 78f1 7fbb 7b14 d53e
00000360: 7d46 ba3e 020b c23e 9969 933e cea7 2fbd
00000370: 191a ce3e 4ea7 ee3e d26a db3e 98d6 ae3e
00000380: 88e9 b73e 52ea df3e 530b bd3e 3b9e c93e
00000390: 7211 c83e 63e1 a73e 9633 d13e 44d2 eb3e
000003a0: 96a3 4c3e 44b5 513d e833 e03e 1a36 b83e
000003b0: d9b9 5f3e 8df4 1b3e b0c7 a83e 014a dc3e
000003c0: 0e16 b43e f4ba e63e 389c 0e3e 578d cc3e
000003d0: 425e dd3e d5b8 45bd b040 e53e d812 b93e
000003e0: 9d4a d23e 9cfa cb3e b843 8b3d 088d d73e
000003f0: c6ae b03e 765b 58bc 2db2 3b3e 678c 67bc
0.069647275 0.10424088 0.02653305 0.024504574 0.05506662 0.08890606 0.079452924 0.118899986
0.06850591 0.085200295 0.05630416 0.062343147 0.018970827 0.039226167 0.05351971 0.079199396
0.09617577 0.10437162 0.034827624 0.055694435 0.097843505 0.12104336 0.06181466 0.11635153
0.06436542 0.08663369 0.12533599 0.020552643 0.03409045 0.059107773 0.058305927 0.12646745
0.03652854 0.043762047 0.37062636 0.11464563 0.3748123 0.45864278 0.071053736 0.024200456
0.3078293 -0.032809053 0.006166948 0.35390204 0.37214038 -0.022460464 0.44950852 0.16315222
-0.021846801 0.4078775 0.43598214 0.060326584 0.4010905 0.4168821 0.44804692 -0.012633831
0.4229716 -0.04782168 0.36849356 0.11664398 0.025860589 0.4329294 0.17286402 0.020772455
0.24524519 0.14344724 0.058242474 0.42023644 0.44890335 0.46250504 0.36939412 0.38702166
0.23969777 0.054367103 0.46022844 0.44817162 0.07093926 0.35910287 0.39417356 0.3671721
0.3567287 0.071808085 0.45340437 0.34591392 0.41362637 0.0043857056 0.40403947 0.3837721
0.36535004 0.38308677 0.3923515 0.05343283 0.37027058 0.06341742 -0.03905609 -0.016057866
0.44198525 0.24321172 0.31278858 0.030153379 0.43918473 0.4519557 0.38151115 0.40255946
0.28891593 0.40778 0.37039718 0.3640897 0.40607893 0.01208607 0.13075459 0.17406622
-0.038287982 0.45934823 0.44833043 0.14800721 0.39535385 0.39499846 0.31316832 0.017060436
0.025934888 0.0069275736 -0.02438653 0.030551376 -0.054832973 -0.03387613 -0.01430737 -0.027842676
-0.019996319 -0.046844862 -0.012158821 0.012218066 -0.037242036 -0.006437124 0.037414372 -0.0093797855
-0.001915127 -0.008434847 0.008064318 0.032840725 0.05064093 0.03279586 0.057773005 0.4093092
0.34807792 0.38634577 0.4488597 0.409566 0.38151962 -0.047306232 0.10767923 0.0043120747
0.023443392 0.4447888 0.44434577 0.3532636 0.44910225 0.36871284 -0.0015729836 -0.016169367
0.39898878 0.0133031765 0.018782154 0.3640855 0.40099356 0.067309886 0.0020635186 0.42985296
0.3619951 0.40258095 0.4619507 0.36560106 0.21278894 0.02420429 -0.04808167 0.039667804
-0.003092325 -0.022013165 0.049212348 -0.04268718 0.009637327 0.0090549 0.3211199 0.05449678
0.1956458 0.016683035 -0.010242027 0.0685652 -0.040096994 0.2657223 0.04888792 0.039109368
0.37312245 0.41599184 0.36964175 0.29788575 0.27852455 0.037053034 0.07104973 0.009264178
0.005908316 0.03334314 0.36826655 0.36810005 0.37436047 0.45000625 0.39057618 0.45821178
0.29396084 0.014245244 0.013589518 0.3180547 0.073742814 0.113083884 -0.0039053839 0.41617188
0.36381903 0.37899023 0.28791502 -0.04288464 0.40254286 0.46612018 0.42854935 0.34148097
0.35920358 0.4373346 0.36922702 0.39378533 0.3907581 0.32789144 0.4085967 0.46058857
0.19984278 0.05119826 0.437896 0.35978776 0.21848239 0.15230007 0.3296485 0.4302521
0.35173076 0.4506451 0.1392678 0.39951584 0.43235976 -0.048271973 0.44775915 0.3614719
0.4107255 0.39839637 0.06800026 0.42099786 0.34508342 -0.0132054 0.18329687 -0.014132596

bias f4 [2]
00000000: ff09 d53e 38c5 f8be
0.4160919 -0.48587966
