models/human_activity/server.pt (torch, 15267 bytes, 2 tensors)

weight f4 [6, 561]
0.04951829 -0.011079376 -0.070071355 -0.13676882 0.08246084 0.0066842153 -0.11848771 0.09821811
0.018395456 -0.15560198 0.050833505 -0.029924873 0.025038311 -0.028061919 0.022471046 -0.08197855
-0.1656072 -0.027078109 -0.07536239 -0.038948268 0.082345665 0.01673278 0.24145766 0.1880867
0.097838424 -0.10903389 0.11723507 0.047729246 -0.12444624 -0.054447718 0.14212313 -0.0028320628
-0.08487255 -0.023810793 0.14042132 -0.020138666 -0.08777464 0.21369435 0.092441835 0.16565159
0.11208866 -0.0029928624 0.11023465 -0.06873167 -0.076600626 -0.091845125 -0.0675636 -0.0759504
-0.09098602 0.10881306 -0.025282143 0.050391637 0.115347326 0.017056951 0.14715219 -0.15766759
0.16713393 -0.11762001 -0.09378288 -0.06574727 -0.07336772 -0.08641641 -0.2610845 -0.07573389
-0.04734935 0.17028213 -0.1379172 0.10230435 -0.06798948 0.1962556 -0.18397802 0.16521864
-0.13145989 0.16654699 -0.12802362 0.09224052 -0.061958972 -0.0012729131 0.03894043 -0.028608236
0.044506133 0.00013907021 0.08312589 0.04029136 0.21132167 0.08592109 0.049362104 0.19169156
0.08969167 -0.046490237 0.00874342 -0.022790708 -0.10414641 -0.1422206 -0.13337591 0.14181
-0.027045522 0.088668 -0.00047737628 0.03043058 0.12257286 0.07728783 0.20436582 0.22056109
0.24659659 -0.108880445 0.18339963 0.12093216 0.04233106 -0.082058266 0.12332568 0.09891444
-0.013568886 -0.049943607 0.18200423 0.10933538 -0.0024459348 0.1733496 0.11720282 0.02838037
0.017232442 -0.056196727 0.015849806 -0.023906955 0.062467866 -0.020343881 -0.004943275 0.047993775
-0.045047127 -0.09988882 0.01939983 0.041753836 0.04361841 0.055747565 0.007699429 -0.062024754
-0.07798024 -0.039665278 -0.07566362 0.02693981 -0.0030260677 -0.073441185 0.096186526 0.02920664
0.11832342 0.034121446 0.012827752 0.040602926 -0.0056520943 -0.120174155 0.12659228 -0.022301484
0.1534339 -0.074460715 0.1219032 -0.11531275 0.17150773 -0.04898816 0.012358107 0.10840412
-0.02590558 -0.016678004 0.025083112 0.12739353 0.08255109 0.0700753 0.15700349 0.08208627
0.09504907 0.08102124 0.05813908 0.002853622 -0.025374403 -0.014965668 0.029048212 0.12245187
0.042356316 -0.032494545 -0.01690675 0.1297628 0.062032297 0.08801074 0.16659 0.14751971
0.12604018 0.0032637408 0.054579258 0.035417646 0.063431524 -0.11964672 0.05539705 -0.04260326
0.0030201606 -0.16171008 0.052896906 -0.10813277 0.037890714 0.016810585 0.08542758 0.1022352
-0.073162526 -0.1876586 -0.18505828 -0.18031608 0.050897453 -0.073120564 -0.13901678 -0.12433575
0.09760495 0.2064429 -0.17140421 0.017495554 -0.099749126 -0.0731798 -0.1877003 -0.18500178
-0.18032195 0.050901026 -0.073113695 -0.13904566 -0.124394216 0.09764504 0.20645773 -0.17140195
0.017452827 -0.09972551 0.15516724 0.09451384 0.10600721 0.05294511 0.028970746 0.1552655
0.032767873 0.14310893 0.16695277 0.070320316 -0.168505 0.0195641 0.14342138 -0.08025537
-0.06733527 -0.033834577 -0.108237624 -0.06453902 -0.0802412 -0.10710834 0.0006479806 0.15858991
0.07856763 -0.053346127 -0.040013548 0.07894488 0.124625735 0.060941063 0.08017448 0.018687513
00000000: b1d3 4a3d 4586 35bc 9281 8fbd 200d 0cbe
00000010: 3be1 a83d 4307 db3b afa9 f2bd 9426 c93d
00000020: 11b2 963c 2056 1fbe cb36 503d 0225 f5bc
00000030: 251d cd3c 1ce2 e5bc 3315 b83c 5fe4 a7bd
00000040: ef94 29be e9d2 ddbc 9957 9abd 3888 1fbd
00000050: d8a4 a83d 2f13 893c ad40 773e cd99 403e
00000060: 835f c83d 294d dfbd f118 f03d be7f 433d
00000070: acdd febd 9204 5fbd ba88 113e 219a 39bb
00000080: a9d1 adbd da0e c3bc 9bca 0f3e d8f9 a4bc
00000090: 31c3 b3bd b1d2 5a3e 2552 bd3d 92a0 293e
000000a0: bd8e e53d e623 44bb b4c2 e13d 31c3 8cbd
000000b0: cae0 9cbd 4c19 bcbd c95e 8abd e28b 9bbd
000000c0: e156 babd 62d9 de3d 7f1c cfbc 7667 4e3d
000000d0: 383b ec3d 05bb 8b3c 10af 163e 9d73 21be
000000e0: 2825 2b3e c3e2 f0bd 3d11 c0bd 81a6 86bd
000000f0: d141 96bd 16fb b0bd deac 85be 5f1a 9bbd
00000100: 64f1 41bd 705e 2e3e 2b3a 0dbe f184 d13d
00000110: 123e 8bbd 3af7 483e bc64 3cbe 132f 293e
00000120: 6c9d 06be 4b8b 2a3e a018 03be 99e8 bc3d
00000130: b1c8 7dbd e0d7 a6ba 0080 1f3d d25b eabc
00000140: 104c 363d 60d3 1139 e83d aa3d 8e08 253d
00000150: b564 583e 65f7 af3d eb2f 4a3d cb4a 443e
00000160: 44b0 b73d 8c6c 3ebd 9040 0f3c 94b3 babc
00000170: b74a d5bd 47a2 11be b293 08be a436 113e
00000180: 928e ddbc 9297 b53d 5c48 fab9 8d49 f93c
00000190: 7b07 fb3d 1549 9e3d 4645 513e c4da 613e
000001a0: d183 7c3e b6fc debd 1dcd 3b3e 48ab f73d
000001b0: 5563 2d3d 2a0e a8bd 2d92 fc3d a793 ca3d
000001c0: 0850 5ebc ab91 4cbd 515f 3a3e 3aeb df3d
000001d0: fa4b 20bb 8f82 313e 0808 f03d f37d e83c
000001e0: 0d2b 8d3c 8a2e 66bd 74d7 813c 85d8 c3bc
000001f0: 4ede 7f3d 36a8 a6bc 32fb a1bb 1f95 443d
00000200: 5683 38bd 8292 ccbd 64ec 9e3c 1206 2b3d
00000210: 38a9 323d 8f57 643d 7e4b fc3b ab0d 7ebd
00000220: 1bb4 9fbd 0f78 22bd 87f5 9abd e0b0 dc3c
00000230: fe50 46bb 5568 96bd 71fd c43d c342 ef3c
00000240: 8d53 f23d eec2 0b3d 7e2b 523c 414f 263d
00000250: 3435 b9bb de1d f6bd 68a1 013e 9ab1 b6bc
00000260: c71d 1d3e dc7e 98bd 63a8 f93d 1729 ecbd
00000270: b99f 2f3e cfa7 48bd a879 4a3c fb02 de3d
00000280: f037 d4bc 4fa0 88bc 197b cd3c 7373 023e
00000290: 8c10 a93d a483 8f3d 86c5 203e d91c a83d
000002a0: 16a9 c23d 77ee a53d 3e23 6e3d d503 3b3b
000002b0: fbdd cfbc 9032 75bc 84f6 ed3c 0cc8 fa3d
000002c0: d17d 2d3d 0019 05bd 0680 8abc 8ae0 043e
000002d0: 9415 7e3d fa3e b43d 9296 2a3e 680f 173e
000002e0: ad10 013e 7ce4 553b 808e 5f3d 1812 113d
000002f0: 63e8 813d 5709 f5bd 04e8 623d c280 2ebd
00000300: e3ed 453b 5497 25be 6daa 583d b774 ddbd
00000310: 4b33 1b3d 5ab6 893c a8f4 ae3d b060 d13d
00000320: 3cd6 95bd 9329 40be eb7f 3dbe c7a4 38be
00000330: d979 503d 3cc0 95bd 6a5a 0ebe bea3 febd
00000340: 1be5 c73d c465 533e 9684 2fbe d652 8f3c
00000350: 4549 ccbd 4adf 95bd 8234 40be 1b71 3dbe
00000360: 51a6 38be 987d 503d a2bc 95bd fc61 0ebe
00000370: 65c2 febd 1ffa c73d a869 533e fe83 2fbe
00000380: 3bf9 8e3c e33c ccbd 29e4 1e3e 7990 c13d
00000390: 4f1a d93d f9dc 583d 0f54 ed3c ebfd 1e3e
000003a0: 9b37 063d 268b 123e abf5 2a3e 1904 903d
000003b0: 938c 2cbe e444 a03c 0edd 123e ed5c a4bd
000003c0: 13e7 89bd 2096 0abd b0ab ddbd 092d 84bd
000003d0: 8055 a4bd 9e5b dbbd 3edd 293a 6565 223e
000003e0: 11e8 a03d 7881 5abd 3fe5 23bd daad a13d
000003f0: c73b ff3d 569d 793d 8532 a43d 8e16 993c

bias f4 [6]
0.051016178 0.018479243 0.075312875 0.00038648673 -0.0033521587 0.01837871
00000000: 57f6 503d c861 973c a33d 9a3d 5fa1 ca39
00000010: e4af 5bbb f38e 963c
