models/a9a/server.pt (torch, 2339 bytes, 1 tensors)

weight f4 [1, 123]
00000000: c30d 73bf b05e fdbe dd01 e53d 4f4a bf3e
00000010: b0a5 8c3e 4de9 13bb 9eac 9abe 42d1 c23e
00000020: d4c3 b73e 60ce 92bd 4f70 64be 5f58 38be
00000030: 3fc1 24be fca2 92be 2ba1 08be c6fa c0bd
00000040: b35e 1cbe 69e1 9ebd 29cd 343d 6394 2dbe
00000050: 908b 18bf a5f8 8abe b40c 163f df00 ebbd
00000060: d6f6 01be d2b9 2cbf 5d40 31bf 759d 26bf
00000070: 715f bd3e 7cc6 4bbf 2c68 1fbf 769d 1a3f
00000080: d8bb 43bf 91cd e1be 8f43 65bf 4661 dcbe
00000090: f23d 3bbe 3328 a1bc 538c d43e 110d 123f
000000a0: 858b 00bf 2a6e 5cbf b153 14bf 1a78 eabe
000000b0: bc9f 16bf 4113 83bd 4add 803e 16cd 15be
000000c0: 043e 4ebf f24d 8a3d 9a7c 153f a471 e23e
000000d0: 1653 31bf 1fb2 eebe 90ea 55be c43f 43bf
000000e0: eb4f 94be 81d9 64bf 4ae7 fa3d 7c1c 09be
000000f0: fda0 523f d362 66bf b916 983e d907 00bf
00000100: 695a 1dbf fe6a 28bf c2c5 e0bd d0ad d7bd
00000110: b26b febe 0887 f1be 4c16 c3be fb19 c9be
00000120: af94 1b3d 0fcd ebbe 81e7 733f 7509 4ebe
00000130: dd91 3a3f 27a9 6bbf adba a5be 1575 02be
00000140: e2bd 023e af55 ae3e 5fd3 8a3b f310 0fbe
00000150: 8dc6 26bd 7eb9 f5be cc87 e5bd d2cd 34be
00000160: e305 ecbd d928 4abe 0db3 27bd 3efd 9fbd
00000170: 7ba8 9fbe af24 35be 3cad 5abe c80e afbd
00000180: 7eb9 a3bd cddf 823b 3613 77be 7d14 8cbe
00000190: 1cf1 a9be 47d4 cabe 5141 41bf 2e21 8dbe
000001a0: c2a6 57be 53a6 23bd 587f 2bbf 17dd 53be
000001b0: a83f 6bbe 9fa6 aebd b1f4 d3be 9fcc eabe
000001c0: c995 11be e854 dcbe 5b37 5cbe b76d 1abe
000001d0: 1ebe 24be 9df6 3bbd d97d 05bf 6ea2 10be
000001e0: 806f 4fbe 4c68 8ebd 43fe 66bd
-0.94942874 -0.49486303 0.11181996 0.3736138 0.2747016 -0.0022569478 -0.3020982 0.38050276
0.35891593 -0.07168269 -0.22308467 -0.18002461 -0.16089343 -0.28639972 -0.1334273 -0.09422831
-0.152705 -0.07757837 0.04414097 -0.16951136 -0.59587955 -0.27142826 0.58613133 -0.114747755
-0.12691817 -0.6747104 -0.69238836 -0.6508401 0.3698688 -0.7959974 -0.6226833 0.60396516
-0.764585 -0.44102147 -0.8955621 -0.43042964 -0.18285349 -0.019672489 0.4151331 0.5705119
-0.5021289 -0.86105597 -0.579402 -0.45794755 -0.58837485 -0.06400157 0.2516883 -0.14629015
-0.8056338 0.06753148 0.5839325 0.44227326 -0.69267404 -0.4662027 -0.2089026 -0.76269174
-0.28967223 -0.89394385 0.12251146 -0.13389772 0.822769 -0.89994544 0.29704836 -0.50011975
-0.6146608 -0.6578826 -0.10975219 -0.10531199 -0.4969154 -0.47173333 -0.3810295 -0.39277634
0.037983593 -0.46054885 0.9527512 -0.20120795 0.7287882 -0.9205498 -0.32368985 -0.12739976
0.12767747 0.34049746 0.004236623 -0.1397131 -0.040716697 -0.47993082 -0.11207542 -0.17656639
-0.1152456 -0.19742145 -0.04094224 -0.07811974 -0.31183228 -0.17689775 -0.21355146 -0.08547741
-0.07994364 0.0039939643 -0.24128422 -0.2735938 -0.33191764 -0.3961508 -0.7549029 -0.27564377
-0.21059707 -0.03995354 -0.66991186 -0.20689808 -0.22973502 -0.08527874 -0.41397622 -0.45859239
-0.14217295 -0.43033528 -0.21505491 -0.15080915 -0.16088149 -0.045889486 -0.52145153 -0.14124462
-0.20257378 -0.06953487 -0.056394827
