models/phishing/server.pt (torch, 2339 bytes, 2 tensors)

weight f4 [2, 68]
000000 04 10 4f 3e 2b c4 1a 3d 5d 87 dc ba d6 83 43 be
       0.20220953 0.037784737 -0.0016825009 -0.1909326
000010 68 55 89 bd af 50 2f 3f c8 95 44 3e 02 aa b5 3f
       -0.06705743 0.6848249 0.19197762 1.4192507
000020 ea 0d bf be 07 58 23 3d 9c 3b bc bd 5d 0e a0 bd
       -0.37315303 0.03987887 -0.09191057 -0.078152396
000030 0e 3d 14 bf de 37 d3 3f 4c cd c4 be cd 09 b9 3e
       -0.5790566 1.6501424 -0.3843788 0.3614029
000040 cf 9c 8c 3d ee 19 e5 bc 76 75 38 be 06 17 f6 bd
       0.06865846 -0.027966466 -0.18013558 -0.1201611
000050 38 14 1c 3d 1e a2 e4 3d 30 a6 82 bb 83 cf e1 3e
       0.03810522 0.11163734 -0.0039870963 0.4410363
000060 3a ef 89 3e 4b 70 3c 3f ee 3e b2 3e cf a7 af be
       0.26940328 0.73608845 0.34813637 -0.34307715
000070 aa 43 8a be 53 a5 01 3e ba 75 80 be 02 35 ff 3d
       -0.2700475 0.12660722 -0.25089818 0.12461282
000080 e9 68 de 3e b9 24 03 c0 ff 9f 57 bf 71 f9 f2 3e
       0.43439415 -2.0491164 -0.8422851 0.47455934
000090 18 75 bc bd 2e 5d 51 3e 84 61 28 3f 40 d8 ca bd
       -0.09202021 0.20445701 0.657738 -0.09904528
0000a0 20 22 e8 3c e0 71 d3 be f6 47 a7 bf 24 98 d8 3d
       0.028336585 -0.41297817 -1.3068836 0.105758935
0000b0 b5 6c 8c 3e 54 e2 cc 3e bc ff 35 be 4c 94 39 3d
       0.27426687 0.40016425 -0.17773336 0.045307443
0000c0 68 13 1c be cb 56 36 bf 74 83 06 3e af e4 3f 3e
       -0.15241778 -0.71226186 0.13136083 0.1873958
0000d0 9e 3b 16 3d 50 d1 8b be 45 51 21 be 0d 28 19 3f
       0.03667795 -0.2730813 -0.15753658 0.5982674
0000e0 8a 56 21 bf 06 86 c3 be 30 4f a2 bd 2c d0 1d 3d
       -0.63022673 -0.3818819 -0.0792526 0.038528606
0000f0 05 80 e0 3d 40 fd 5d 3d 08 1c bf bd 41 cb 6f bf
       0.10961918 0.054196596 -0.093315184 -0.93669516
000100 30 eb 27 3e 68 68 c1 bc cf 51 70 3e 04 ce 29 bd
       0.1639831 -0.023609355 0.23468708 -0.041456237
000110 1d f4 02 be 7e 29 13 3e 03 2d 44 be 7e 7a 6a 3d
       -0.12788434 0.14371297 -0.19157796 0.057245724
000120 e1 48 8b 3d 27 45 0d bf 73 f8 b5 bd a0 a8 9b bf
       0.0680101 -0.55183643 -0.088852786 -1.2160835
000130 9e e6 c5 3e 4d eb e7 bd ee 05 88 3d 9f 89 b0 bc
       0.3865251 -0.11324177 0.06641756 -0.021549998
000140 af 4b b3 3e d6 b4 cf bf eb 6a da 3e 52 ac f4 be
       0.3501868 -1.6227062 0.42659697 -0.4778772
000150 14 c2 01 3b 7c 75 a4 3d 89 ad 9f 3d a9 06 42 3c
       0.0019799517 0.08030221 0.07796771 0.011842408
000160 8f 59 57 3d d9 80 a9 bd 40 65 c0 3c a8 f3 93 be
       0.052575644 -0.08276529 0.02348578 -0.28896832
000170 39 fd 4e be a9 8b 2d bf 25 7a b7 be 1c 8e 1b 3e
       -0.20213784 -0.6779123 -0.35835376 0.15190929
000180 ac 2d 82 3e 2b 18 07 be 08 4b df 3d a0 a2 b7 bd
       0.2542547 -0.13192813 0.10902983 -0.08966565
000190 9a 3e cc be 15 cd 04 40 12 67 34 3f 49 5f 1e bf
       -0.3989151 2.0750172 0.7046977 -0.61864144
0001a0 2e 1a c1 bd 81 b5 d1 bd cd e7 31 bf 24 a5 83 3d
       -0.094288215 -0.10239697 -0.69494325 0.064279824
0001b0 00 a0 ea bc 6a ef bc 3e 03 8d a3 3f ca 8e 16 be
       -0.028640747 0.36901408 1.2777408 -0.14702907
0001c0 a9 11 df be 6e 8e b4 be 94 b9 ac 3e 5b 9b 9c bd
       -0.4356816 -0.35264915 0.33735335 -0.07646819
0001d0 90 33 8c 3d a5 9e 36 3f a4 e7 13 bd d5 f8 1b bd
       0.06845772 0.7133582 -0.03610958 -0.0380791
0001e0 ee d3 71 3d e1 ec 97 3e 56 fc 37 3e 25 bf 1c bf
       0.059040003 0.29672912 0.17967352 -0.61229163
0001f0 50 58 09 3f 7f 2c 5d 3e f1 fc 0f bd 26 17 24 be
       0.5365038 0.21599005 -0.035153333 -0.16024455
000200 3e 02 c7 bd d6 ac d6 bd 0e 4f 8d bb 71 cf 7f 3f
       -0.097172245 -0.104821846 -0.0043124026 0.99925905
000210 21 a5 34 be 4c 4c 08 3b 33 b0 12 be df d4 69 3d
       -0.17641117 0.002079743 -0.14325027 0.057087775

bias f4 [2]
000000 b1 95 12 3a 33 b2 fa bb
       0.0005591764 -0.0076506375
